Image_Extraction-SimpleCNN/best_model3.pt (torch, 418447 bytes, 7 tensors)

weight f4 [32, 1, 7, 7]
0	0xbd436c48	-0.047710687
1	0xbe04c15d	-0.12964387
2	0xbd3e0c5a	-0.046398498
3	0x3dc17cfc	0.09447667
4	0x3da5a6b2	0.08088435
5	0xbdaddc11	-0.0848924
6	0xbd6638a4	-0.05620636
7	0x3db6b839	0.089218564
8	0x3dc0ae75	0.09408275
9	0xbdc74771	-0.09730423
10	0x3dc74944	0.09730771
11	0xbd3cfeb5	-0.046141345
12	0x3dd88517	0.1057226
13	0xbdda6230	-0.10663259
14	0xbcdba7c7	-0.0268134
15	0x3da34936	0.07972948
16	0xbdb9a30e	-0.09064303
17	0x3db03fdf	0.086059324
18	0xbdfb9457	-0.12284153
19	0x3de2f412	0.11081709
20	0xbdd6edfe	-0.10494612
21	0x3e0d1973	0.1377924
22	0x3d913ca4	0.070916444
23	0x3c724792	0.0147875715
24	0x3d8c1d48	0.068415225
25	0x3c10db4e	0.008841349
26	0x3d0e16cf	0.03468972
27	0xbd22a1b9	-0.039705012
28	0x3d30235a	0.043002464
29	0xbdbc7f1b	-0.09203931
30	0xbd547f2e	-0.0518791
31	0xbcc24055	-0.023712317
32	0xbcb16226	-0.021653246
33	0x3d7d82cf	0.061892327
34	0x3d3bcb29	0.045848045
35	0x3dc7a95a	0.09749098
36	0xbd979ce6	-0.07402973
37	0x3dc72309	0.09723479
38	0x3df59534	0.11991349
39	0x3d489e5a	0.04897914
40	0xbd416019	-0.047210786
41	0x3df628c6	0.12019496
42	0x3d61a4a1	0.055088643
43	0x3ca3d77a	0.020000208
44	0xbddbb6a1	-0.10728193
45	0xbdabd225	-0.08389691
46	0x3cc38719	0.02386813
47	0x3d9889e4	0.074481755
48	0xbdf0af48	-0.11752182
49	0xbe1f8f8e	-0.15582106
50	0xbe0976b5	-0.1342419
51	0xbde32a1c	-0.11092016
52	0x3dce3e08	0.10070425
53	0x3deb8c01	0.11501313
54	0xbd8e42f0	-0.06946361
55	0xbdf5cb1e	-0.12001632
56	0x3dd1fc3c	0.10253188
57	0x3c30d720	0.010793477
58	0xbd61b519	-0.05510435
59	0x3b79585c	0.003804705
60	0x3cd02ed2	0.02541295
61	0xbde03e2c	-0.10949358
62	0xbdefc068	-0.117066205
63	0xbe1d41b9	-0.15357102
64	0xbd7df630	-0.06200236
65	0xbdcca529	-0.09992439
66	0xbdbd9e0b	-0.0925866
67	0x3d2deb7d	0.042460907
68	0x3d5aea52	0.05344612
69	0xbdfc550c	-0.12320909
70	0xbd53a846	-0.05167415
71	0xbd91bbc4	-0.071158916
72	0xbdb7de4e	-0.08977948
73	0xbe150bb5	-0.14555247
74	0xbd3fb645	-0.046804685
75	0xbd9efbf8	-0.07762903
76	0x3b42984e	0.0029692831
77	0xbe10d100	-0.14142227
78	0xbd2116b9	-0.03932831
79	0xbd96a16f	-0.0735501
80	0x3dd819c4	0.105517894
81	0xbe07e7ab	-0.13271968
82	0xbe079b43	-0.13242821
83	0x3dc4912a	0.09598
84	0xbd9ea0d2	-0.07745518
85	0x3d8430fa	0.06454654
86	0x3cf5c68f	0.030001907
87	0xbe00c189	-0.12573828
88	0x3c59c598	0.013291739
89	0xbdc90073	-0.09814539
90	0xbe0bc7bb	-0.1365041
91	0xbdabf19d	-0.083956935
92	0xbd95c28a	-0.07312496
93	0x3df1647c	0.11786744
94	0xbcf63aa1	-0.030057253
95	0xbd8b184a	-0.06791742
96	0x3d2c17fa	0.042015053
97	0xbd87ace5	-0.06624774
98	0xbd96de18	-0.0736658
99	0xbc330739	-0.010927015
100	0x3ddd4c45	0.10805563
101	0xbe0bd37d	-0.13654895
102	0xbde7ca7d	-0.113179184
103	0x3e02f7fe	0.12789914
104	0x3dc62d05	0.096765555
105	0xbdb3248b	-0.087472044
106	0xbdd39da6	-0.103328034
107	0xbc057b53	-0.008147079
108	0xbe22a9d3	-0.15885095
109	0xbdf02bdf	-0.11727118
110	0xbdc786c1	-0.09742499
111	0xbe08eef5	-0.13372405
112	0xbdabc960	-0.083880186
113	0xbd5217ce	-0.051292233
114	0x3c460060	0.01208505
115	0xbe087c2c	-0.13328618
116	0xbd9a7135	-0.07541124
117	0x3caacb04	0.020848759
118	0x3dfc4850	0.1231848
119	0x3dd513d2	0.10404171
120	0x3c20e1df	0.009819477
121	0xbd94a898	-0.07258719
122	0xbdb04c53	-0.08608308
123	0x3de12579	0.109934755
124	0xbe084604	-0.13307959
125	0x3d9938d0	0.07481539
126	0xbdcd7c04	-0.1003342
127	0x3c03c097	0.008041522
128	0x3da81272	0.08206643
129	0x3dc83eb0	0.09777582
130	0x3dc0820a	0.09399803
131	0x3ccbb84a	0.02486815
132	0x3dfc2aa6	0.12312822
133	0xbdae32a5	-0.085057534
134	0x3d656db3	0.05601282
135	0xbe0585f7	-0.13039385
136	0xbbccac7c	-0.0062461477
137	0x3a9f1137	0.0012135868
138	0x3cb197b6	0.021678787
139	0x3e111f78	0.1417216
140	0x3e132cbc	0.14372534
141	0x3d33abde	0.043865077
142	0xbd6b1239	-0.057390425
143	0x3d8cf364	0.068823606
144	0x3d7bf2bd	0.06151079
145	0xbdce455d	-0.10071824
146	0x3d4d908e	0.050186686
147	0xbd67a4da	-0.0565537
148	0x3e0de1bb	0.1385564
149	0x3e03556d	0.12825556
150	0x3e009c87	0.1255971
151	0x3bdfdef5	0.0068319985
152	0xbdab86f7	-0.08375352
153	0x3dddf913	0.10838523
154	0x3d67fc86	0.05663731
155	0x3ce2e058	0.027694866
156	0x3cec5c87	0.028852714
157	0x3dc7a917	0.09749048
158	0x3d1593eb	0.03651802
159	0x3d84844f	0.06470548
160	0x3ba193d4	0.0049309526
161	0x3cc9f409	0.024652498
162	0xbc88d9f6	-0.016705494
163	0x3e07a48b	0.13246362
164	0x3c083a07	0.008314616
165	0xbc8895d3	-0.016673004
166	0xbd90a6f5	-0.070630945
167	0x3cbbfcdf	0.022947727
168	0x3d617565	0.055043597
169	0x3d3f5541	0.046712164
170	0x3d598fe6	0.053115748
171	0xbdbe3ef0	-0.09289348
172	0xbdb2a568	-0.08722955
173	0xbdec7dc4	-0.115474254
174	0x3df4cd58	0.11953229
175	0x3d4a8e3c	0.04945205
176	0x3ddb0dc3	0.10695984
177	0x3d6f5478	0.058430165
178	0xbdac8c13	-0.084251545
179	0x3cd76ad0	0.02629605
180	0x3d732baa	0.059367813
181	0x3bedeaec	0.007260671
182	0x3e00d99d	0.12583013
183	0x3d13bad7	0.036066856
184	0x3ada9063	0.0016675111
185	0xbbe7fd0d	-0.0070797266
186	0xbd4c1bc3	-0.049831163
187	0x3d120525	0.035649437
188	0xbd034d70	-0.032056272
189	0x3ab916ac	0.0014121137
190	0x3da8652a	0.082224205
191	0xbe071256	-0.13190588
192	0x3d9de229	0.07709152
193	0xbd861f26	-0.0654891
194	0xbe0024f0	-0.1251409
195	0xbe0d356d	-0.13789912
196	0xbd89aaf1	-0.067220576
197	0xbcc4e4f2	-0.02403495
198	0xbdb87dd7	-0.09008377
199	0x3d287e7e	0.041136257
200	0xbd928264	-0.07153776
201	0x3bcd39a2	0.006262974
202	0x3d7a7613	0.06114776
203	0x3d67a160	0.056550384
204	0x3d1db2a9	0.03850046
205	0xbd9204e1	-0.07129837
206	0xbdb919c2	-0.09038116
207	0x3c14bf2d	0.009078783
208	0x3dd8b7fb	0.105819665
209	0x3e099334	0.1343506
210	0x3d8cfed5	0.06884543
211	0x3d26b41f	0.04069912
212	0x3d3758dc	0.044762477
213	0x3db20559	0.08692426
214	0x3c7964f0	0.015221819
215	0x3d8bd9e1	0.068286665
216	0xbe0136dd	-0.12618585
217	0xbd004528	-0.031315953
218	0xbd0a0237	-0.03369352
219	0x3e0bc833	0.13650589
220	0x3d498d6a	0.04920713
221	0x3e07251d	0.13197751
222	0x3d32ab5a	0.043620445
223	0xbdcacea1	-0.099026926
224	0xbde1605f	-0.110047095
225	0x3da36154	0.07977548
226	0xbdb7a2cb	-0.08966597
227	0x3dbba471	0.09162224
228	0x3d0420b4	0.03225775
229	0x3dc4de89	0.09612758
230	0x3e0f9d57	0.14024864
231	0xbe0e7f0b	-0.1391565
232	0x3e0f7a1b	0.14011423
233	0xbda61c72	-0.08110894
234	0x3c3e8a23	0.011629614
235	0x3e113bfb	0.14183037
236	0x3c07cce4	0.008288596
237	0xbdd72841	-0.10505725
238	0xbdb23b46	-0.08702712
239	0x3deb6bfc	0.11495206
240	0xbc3dbd54	-0.011580784
241	0xbd1ecdd9	-0.03877053
242	0xbb21d5cc	-0.0024694083
243	0x3dc5e407	0.096626334
244	0x3bba1075	0.0056782314
245	0x3d73f75b	0.05956207
246	0x3e0a51f0	0.13507819
247	0xbd16e3db	-0.036838394
248	0xbdf284e5	-0.11841754
249	0xbd8eb165	-0.06967429
250	0xbdb33c57	-0.08751743
251	0xbdfee934	-0.12446824
252	0xbbea389b	-0.007147861
253	0xbdbdaef4	-0.09261885
254	0xbd06b7d5	-0.03289016
255	0x3d83c836	0.064346716

bias f4 [32]
0	0x3dfd8e52	0.12380661
1	0x3db1df22	0.08685137
2	0xbdd2630d	-0.10272799
3	0xbd8f9003	-0.0700989
4	0xbd2286e7	-0.039679434
5	0x3dc8d31b	0.0980589
6	0xbcfb832a	-0.030702192
7	0xbd425358	-0.047442764
8	0x3dd7fc3b	0.10546156
9	0x3d1c55e7	0.03816786
10	0x3e09dcf6	0.13463196
11	0xbdc952ff	-0.098302834
12	0x3dee9542	0.116495624
13	0xbd021662	-0.031759627
14	0x3d148954	0.03626378
15	0xbd4b7b0b	-0.04967789
16	0x3e059c31	0.13047864
17	0x3db668ea	0.089067295
18	0xbc42365d	-0.0118537815
19	0x3d8be607	0.068309836
20	0xbdd191e3	-0.10232904
21	0xbc3302dc	-0.010925975
22	0x3d205ca3	0.039150845
23	0xbdd5d780	-0.10441494
24	0xbc7fe323	-0.015618118
25	0x3d88193d	0.06645439
26	0xbcc55902	-0.024090294
27	0x3d38eaaf	0.045145687
28	0x3df5c28f	0.12
29	0xbcc73f32	-0.024322126
30	0x3bb6ba2a	0.0055763917
31	0x3d71de76	0.059050046

weight f4 [32, 32, 7, 7]
0	0xbca1e769	-0.019763665
1	0x387afccc	5.984008e-05
2	0x38934a29	7.0233196e-05
3	0xbc3775be	-0.0111975055
4	0xb820ad88	-3.8308586e-05
5	0x3bafd6f3	0.0053662
6	0xbcb02842	-0.021503571
7	0xbba7b622	-0.0051181475
8	0xbba11301	-0.0049155955
9	0x3c761bb4	0.015021253
10	0x3bdad162	0.0066777924
11	0x3bd6dfee	0.006557456
12	0xbc7221ac	-0.014778536
13	0xbc274ed6	-0.010211667
14	0xbc930161	-0.017944993
15	0xbc6b9019	-0.014377617
16	0xbc88719a	-0.016655732
17	0x3c694356	0.014237246
18	0xbc894a26	-0.01675899
19	0xb92eab3a	-0.0001665772
20	0xbc4f799d	-0.012663272
21	0xbc2f582f	-0.010702177
22	0x3c79214d	0.015205693
23	0xbc721fa4	-0.0147780515
24	0xbbcd9a58	-0.0062745027
25	0xbbee9eb9	-0.007282105
26	0x3bd73978	0.00656813
27	0x3c0d7be8	0.008635499
28	0x3b56b2f8	0.0032760482
29	0xbb43a33e	-0.0029851939
30	0xbaa80324	-0.0012818319
31	0xbca6d172	-0.020363543
32	0xbbda844d	-0.0066686035
33	0x3c521d13	0.012824315
34	0xbc9943fd	-0.018709177
35	0x3b16f3e6	0.0023033558
36	0xba312a88	-0.0006758352
37	0xb81817d7	-3.6261827e-05
38	0x3ac9fa56	0.0015409689
39	0x3c4838fc	0.012220617
40	0x3a782eb1	0.0009467407
41	0x3c416bcf	0.011805489
42	0x38868df4	6.416059e-05
43	0x3c2ac9aa	0.010424057
44	0x3941fe85	0.0001850073
45	0xbb5eaaba	-0.0033976273
46	0x3ab7a7be	0.0014011783
47	0xbadb72f8	-0.0016742637
48	0x3c42958a	0.011876473
49	0x3b9a3a02	0.004706622
50	0xbca66484	-0.020311601
51	0xbc82861f	-0.015933095
52	0xbad0d64c	-0.0015933006
53	0xb8803961	-6.114203e-05
54	0x3c0e47b6	0.008684089
55	0x3ac9eaab	0.001540502
56	0xbbe5e243	-0.007015498
57	0xb938d3e9	-0.0001762655
58	0x3b829ad0	0.0039857402
59	0xbac29db2	-0.0014848022
60	0x388e1a1c	6.775951e-05
61	0x3bc00270	0.0058596656
62	0x39dc35bb	0.00042001702
63	0xbc3ae568	-0.011407234
64	0xb92c2759	-0.00016417856
65	0xbadc04f9	-0.001678615
66	0xb83edd19	-4.5505443e-05
67	0xbc1c6a07	-0.009546763
68	0xbbd6e73d	-0.0065583275
69	0x3b989ce6	0.0046573756
70	0xbc933edc	-0.01797431
71	0x3bd63273	0.0065367757
72	0x3c900fac	0.017585598
73	0x3bd7600b	0.0065727285
74	0xbbb25056	-0.0054417057
75	0xbb720409	-0.0036928675
76	0x3a51ad93	0.0007998582
77	0x3c028f73	0.007968771
78	0xbc7bff14	-0.01538064
79	0x3b303fc6	0.002689348
80	0xbc2aed2f	-0.010432526
81	0xbc4489b6	-0.0119957235
82	0x35f258de	1.8056269e-06
83	0xbc247995	-0.010038753
84	0xbb051242	-0.0020305072
85	0xbc71e0d4	-0.014763076
86	0x388272d1	6.220269e-05
87	0x3bb8ded7	0.005641799
88	0x3c37fa96	0.011229178
89	0x3c4e0a8b	0.012575756
90	0xba8f4c5f	-0.0010932795
91	0x3913ae99	0.00014084055
92	0x3c8e0067	0.017334176
93	0x3c513b61	0.012770505
94	0xb6a36ef8	-4.870697e-06
95	0xbb143e95	-0.002262031
96	0x3c110621	0.008851559
97	0xbbb4b64e	-0.0055148965
98	0x3c4345f0	0.01191853
99	0x3c951dfb	0.018202772
100	0x36d33788	6.2947547e-06
101	0x3b591da9	0.003312925
102	0xbc91b02c	-0.0177842
103	0x3c312334	0.010811616
104	0x3c522889	0.012827047
105	0x3a9e591e	0.0012081002
106	0x3c87c61c	0.016573958
107	0x3c59f28e	0.013302458
108	0xbc2b00b2	-0.0104371775
109	0xbc7ccecb	-0.015430163
110	0x3c451789	0.012029537
111	0xbbe49575	-0.0069758245
112	0xb80a608b	-3.2991677e-05
113	0x3c8c0d11	0.017096074
114	0x3aa52448	0.0012599314
115	0x3c8ca443	0.01716817
116	0x3c12b385	0.008953934
117	0xbc09e4f3	-0.008416402
118	0x3b20ed6e	0.0024555582
119	0x3c90a03d	0.017654533
120	0x3c81a738	0.015826806
121	0xbca77eb2	-0.020446155
122	0xbc922a17	-0.017842336
123	0x3b09ec80	0.0021045506
124	0xbca3ebbe	-0.020009872
125	0xba99a6c0	-0.0011722669
126	0x3a4443c9	0.00074869074
127	0xba96d574	-0.0011507706
128	0x3b3919a3	0.002824404
129	0x3c46a5a4	0.012124453
130	0xbb4581d7	-0.0030137205
131	0x3c01511f	0.007892876
132	0x3b937b11	0.0045007546
133	0x3c3171e5	0.010830377
134	0xbc462d1a	-0.012095714
135	0x3c1fbfa6	0.009750282
136	0x3b42d2f1	0.0029727782
137	0x3c982ef5	0.018577078
138	0xbb572f17	-0.0032834464
139	0x384c2b26	4.8677575e-05
140	0x3c958f52	0.018256817
141	0xbc8129a5	-0.015766928
142	0x3c04b40b	0.008099566
143	0x3c7e7a21	0.0155320475
144	0x3c58109d	0.013187555
145	0x3c31dd2f	0.010855957
146	0xbc852261	-0.016251745
147	0x3c6771dc	0.014126267
148	0xbbdfb7de	-0.0068273386
149	0xbb9a9b13	-0.0047181933
150	0x3c2b1c2e	0.01044373
151	0x3bcc4d30	0.0062347874
152	0xbbff7834	-0.0077963118
153	0xbc159981	-0.009130836
154	0xbc7aa37a	-0.015297765
155	0x3bf0b5fb	0.0073459125
156	0xb884e179	-6.336248e-05
157	0x3bf588fc	0.0074931365
158	0xbc285755	-0.010274728
159	0x3a5fabf9	0.0008532401
160	0xbc5d0c4f	-0.013491704
161	0x38828e18	6.22535e-05
162	0x3900b95b	0.00012276082
163	0xb88be7d6	-6.671219e-05
164	0xbc5ec7b1	-0.013597415
165	0x3c61246b	0.013741593
166	0x39031560	0.00012501096
167	0xbc622083	-0.013801697
168	0xb87e7613	-6.0668284e-05
169	0xb846feec	-4.7444293e-05
170	0x390dc7a8	0.00013521186
171	0x377b6a95	1.4985581e-05
172	0x3a0f3faf	0.00054645067
173	0xbc6907ee	-0.014223082
174	0x3b826c18	0.003980171
175	0xbc271788	-0.010198481
176	0x394f3c1f	0.00019763455
177	0xb921b652	-0.00015422076
178	0xbc086347	-0.008324451
179	0x377d4ca2	1.5097818e-05
180	0xba2584f0	-0.000631406
181	0x3b8262d9	0.0039790687
182	0xbc02f9e7	-0.007994152
183	0x3b13d3f9	0.0022556765
184	0x3c62522e	0.0138135385
185	0xbb1cdd0c	-0.0023935465
186	0xbc53b268	-0.012920953
187	0xbb76208b	-0.0037556018
188	0x3c9a11c6	0.018807303
189	0x3bdb853e	0.0066992333
190	0xbc00426d	-0.007828337
191	0x3b9323c9	0.00449035
192	0x3b93bffc	0.0045089703
193	0x3a5ceb14	0.00084273634
194	0x3bcb1af6	0.0061982824
195	0x3c3d16ec	0.0115411095
196	0xbb22bd0d	-0.0024831921
197	0xbabe2478	-0.0014506718
198	0x3bf2428e	0.007393188
199	0x3c539590	0.012914076
200	0xbad17f5e	-0.0015983393
201	0x3c2a4e1e	0.010394601
202	0xbab308af	-0.0013659204
203	0xb84ba83c	-4.8555652e-05
204	0xbc8c8e5a	-0.017157722
205	0x38821956	6.203602e-05
206	0xbb70840c	-0.00366998
207	0x3ae87465	0.0017734884
208	0x3c34ba24	0.0110307075
209	0x3ba52188	0.0050393976
210	0xbc728c01	-0.014803887
211	0x3c8d3eb7	0.017241819
212	0xbbd0188b	-0.006350582
213	0x3c1425d6	0.009042224
214	0x3bbb5764	0.005717205
215	0xbc240476	-0.010010829
216	0xbc914c13	-0.01773647
217	0xbc585562	-0.013203951
218	0x3c94c2bf	0.018159268
219	0xbc794c60	-0.015215963
220	0xba144e87	-0.00056574534
221	0xbb39f085	-0.002837212
222	0xbc9f1dc5	-0.019423375
223	0x38395970	4.4190732e-05
224	0x3c6dd64b	0.014516423
225	0xbbfcdf77	-0.007717069
226	0x3730ab02	1.0530233e-05
227	0x3c87c8d9	0.016575264
228	0xbc8af1b0	-0.016960949
229	0x3c176c55	0.009242137
230	0xbab1a456	-0.0013553004
231	0xbb41d086	-0.0029573753
232	0x3c17d220	0.009266406
233	0xb88789d5	-6.462975e-05
234	0x3c395cb9	0.011313611
235	0x3b27fd91	0.0025633315
236	0x3b813f8a	0.003944342
237	0x3c0fe0d4	0.008781631
238	0x3a8f7d17	0.0010947314
239	0xba616f2f	-0.00085996365
240	0xbc479470	-0.012181386
241	0x3a8f3489	0.0010925691
242	0xbc88c8ff	-0.016697405
243	0x3c0c68f8	0.008569948
244	0x3b58f0bd	0.0033102476
245	0xb996835e	-0.00028708106
246	0xb72fae21	-1.0471355e-05
247	0xbb6fe1b3	-0.0036603033
248	0x338e9a08	6.6404084e-08
249	0x3c09fae3	0.008421632
250	0xbc4eaa70	-0.012613878
251	0xbc978c0c	-0.018499397
252	0x3c610cf7	0.013736001
253	0xbc958df8	-0.018256173
254	0x3bb8e1c6	0.0056421487
255	0xbab39736	-0.001370168

bias f4 [32]
0	0xb4b8eacd	-3.444351e-07
1	0xbbc71488	-0.0060754456
2	0xbcc2d911	-0.023785146
3	0xbc985f4f	-0.018600134
4	0xbc98ccfe	-0.018652435
5	0xb9dc0ad2	-0.00041969732
6	0xbb867279	-0.0041030017
7	0x3ca1c9c6	0.019749533
8	0xbba51572	-0.005037957
9	0xbc07e6b1	-0.008294747
10	0x3be75fa6	0.0070609627
11	0xbb477971	-0.0030437375
12	0x3ba06890	0.0048952773
13	0x3c82fb3e	0.015988942
14	0xbc873c80	-0.01650834
15	0x3cc32671	0.023822041
16	0xbc86654c	-0.016405724
17	0x3c0e21a0	0.008675009
18	0xbca012f6	-0.019540291
19	0xbc85ee75	-0.016349057
20	0xbbdacb12	-0.00667704
21	0x3bfe8c40	0.007768184
22	0xba377ef9	-0.00069998164
23	0x3c9fac07	0.019491209
24	0x3cdc84de	0.026918825
25	0x3cbf56a7	0.023356749
26	0xbc9c6238	-0.019089803
27	0x3c87a432	0.016557787
28	0x3cb8e169	0.022568421
29	0x3b0d45c2	0.0021556471
30	0x3c8a3498	0.016870782
31	0x3c283903	0.010267499

weight f4 [32, 32, 7, 7]
0	0xbb00e9b6	-0.0019670553
1	0x3c020047	0.007934636
2	0x3af5fe86	0.001876787
3	0xbbb2269e	-0.0054367324
4	0x3c8f9493	0.0175269
5	0x38953e09	7.1164286e-05
6	0xbc137e33	-0.009002256
7	0xbc4cc621	-0.0124984095
8	0xbb9095cf	-0.00441239
9	0xbb56126c	-0.003266479
10	0xbc93d279	-0.018044697
11	0x3c2a6248	0.010399409
12	0xb9aed61a	-0.00033347384
13	0x3bc7bdad	0.006095609
14	0x3b29fc1c	0.0025937622
15	0x3c141a72	0.009039508
16	0xbc4a038f	-0.01232995
17	0x3b429a8a	0.0029694163
18	0xbc9b78f0	-0.018978566
19	0x3c072aa8	0.008249916
20	0x3c5a7e1e	0.013335733
21	0x3c9cc6fe	0.019137856
22	0x3bf370b8	0.0074292086
23	0xba9385ac	-0.0011255047
24	0x3c46113b	0.012089069
25	0xbbefa25e	-0.007313057
26	0x3c10f9fa	0.008848662
27	0xbc4ff46f	-0.012692555
28	0x3bffd40e	0.0078072613
29	0xbc1de9f9	-0.009638303
30	0x3c865a31	0.016400428
31	0xbc5eb25d	-0.01359233
32	0x3c4c1f59	0.012458646
33	0xbc85afd4	-0.016319193
34	0x3bce5626	0.006296891
35	0x3c99cfaf	0.018775789
36	0xbc5ea374	-0.013588775
37	0x3b19ff62	0.0023498167
38	0xbbfa0eeb	-0.007631173
39	0xbc960a7e	-0.01831555
40	0xbc751a8f	-0.014959945
41	0xb42e78ae	-1.6248916e-07
42	0x3bd936e3	0.0066288575
43	0xb894f78f	-7.103301e-05
44	0xbc0effc4	-0.008727971
45	0xbba62e9f	-0.0050714756
46	0xbc1c07e4	-0.009523366
47	0x3c1e0a64	0.009646032
48	0x3c9cc437	0.019136531
49	0x3c7b9086	0.015354281
50	0xbc420da6	-0.011844074
51	0x3c0e5dbf	0.008689343
52	0x3b281e15	0.0025652696
53	0xbcbb62f5	-0.022874335
54	0x3bc661be	0.0060541322
55	0xbb155d1a	-0.0022791089
56	0x3c1afd20	0.009459764
57	0xbae4e0dc	-0.0017462033
58	0xbc0779b3	-0.008268761
59	0xbb44881a	-0.002998835
60	0xbc676d8c	-0.014125239
61	0x3afc386f	0.0019242893
62	0xbc9964eb	-0.01872488
63	0x3bc86ab9	0.006116238
64	0x3c7f15fc	0.015569206
65	0x3c94ba37	0.0181552
66	0xbc88a8cf	-0.016682057
67	0xbca840fa	-0.020538796
68	0xbbbe3148	-0.0058042146
69	0x3c508e91	0.012729303
70	0xbb585e1e	-0.0033015083
71	0x3be46112	0.0069695795
72	0x3bd88389	0.006607477
73	0x39d543fe	0.00040677184
74	0xbcbd3269	-0.023095326
75	0x3aa6e425	0.0012732787
76	0xbc298e4f	-0.01034887
77	0x3befeb41	0.0073217456
78	0x3a241191	0.0006258721
79	0xbc6c5ce0	-0.01442644
80	0xbc456f81	-0.01205051
81	0x3b9ef3b3	0.0048508286
82	0xbb4f0493	-0.003158842
83	0x3b010f45	0.001969294
84	0xbaaf260b	-0.0013362778
85	0xbc8564b2	-0.016283367
86	0x3c5ea9bc	0.0135902725
87	0x3c86a5ca	0.016436476
88	0x3b1f9d9e	0.0024355422
89	0xbc8fa2ac	-0.017533623
90	0x3b590c54	0.003311892
91	0xbc404768	-0.011735775
92	0x3bf15d1b	0.0073658354
93	0xbcb0dea6	-0.021590542
94	0xbc17481e	-0.009233503
95	0x3c84f0d9	0.016228126
96	0x3c49860f	0.0123000285
97	0xbb89d836	-0.0042066826
98	0x3c135c82	0.008994224
99	0x378f6df1	1.7098124e-05
100	0xbc796e18	-0.015224002
101	0xbc519291	-0.012791292
102	0xbc30941d	-0.0107775
103	0x3b6353db	0.0034687433
104	0xbcab66ab	-0.02092298
105	0x3c3aeb4d	0.011408639
106	0x3b2a217e	0.0025959904
107	0xbba241fe	-0.0049517145
108	0x3c1d2c4e	0.009593083
109	0xbc8378b3	-0.016048765
110	0x3a05aca9	0.0005099276
111	0xbcac4334	-0.021028139
112	0x3c9a9aad	0.018872583
113	0xbc4b5a4b	-0.012411664
114	0xbb96320b	-0.0045836023
115	0xbc7af254	-0.015316565
116	0x3b2753b8	0.0025532078
117	0x3c9d0bb2	0.019170616
118	0x3b61acce	0.0034435275
119	0x3c641b00	0.013922453
120	0x3ca681ab	0.020325502
121	0x3bb8be52	0.0056379223
122	0x3bd2ae2a	0.0064294534
123	0x3c8d76ae	0.017268505
124	0xbc92c938	-0.017918214
125	0x3c907335	0.01763306
126	0x3a25f141	0.00063302
127	0xbbaac3d9	-0.005211335
128	0x3c0d86d3	0.008638102
129	0x3b621841	0.003449932
130	0xbb13c1d8	-0.002254596
131	0xbba10726	-0.0049141822
132	0xbcb3eca3	-0.021963423
133	0x3c19becb	0.0093838675
134	0x3b543daf	0.00323854
135	0xbc23cf69	-0.009998181
136	0xbc7aa341	-0.015297712
137	0x3bdbae88	0.0067041554
138	0x3c376c36	0.011195233
139	0x3afb02b6	0.0019150588
140	0xba6a6e3d	-0.00089428184
141	0x3c9c31bc	0.019066684
142	0xba95a37a	-0.0011416518
143	0xbbcb109a	-0.0061970474
144	0x3ca14feb	0.019691428
145	0x3c61e062	0.013786407
146	0xbbcea5df	-0.0063063945
147	0xbb1d3c71	-0.0023992325
148	0x3b3cfd1b	0.0028837386
149	0xbb4023e9	-0.002931828
150	0x3c345bf4	0.011008251
151	0xbc690205	-0.014221673
152	0x3c87ba26	0.016568255
153	0xbc69ac47	-0.0142622655
154	0x3bd2f57b	0.006437955
155	0x3bd75f5f	0.0065726484
156	0x3c8a807c	0.01690697
157	0x3bcd0df4	0.006257767
158	0xbcc6f49b	-0.024286559
159	0xbbfd1a78	-0.0077241026
160	0x3bc9199b	0.0061370856
161	0xba285551	-0.00064214045
162	0xbb6bfd08	-0.0036008973
163	0xbc6566aa	-0.014001528
164	0x3be795cd	0.007067418
165	0xbca2d31a	-0.019876052
166	0x3c93640f	0.017992048
167	0xbbb257a5	-0.005442577
168	0xbc9de794	-0.019275464
169	0x3c76f087	0.015071995
170	0x3b0305a5	0.0019992378
171	0x3c2a880e	0.0104084145
172	0xbcaa6627	-0.020800663
173	0x3b2b3318	0.0026122984
174	0x3c5da1b8	0.013527326
175	0x3c7ef5c6	0.015561527
176	0x3c883d7c	0.01663088
177	0x3ca9cdc6	0.020728003
178	0xbc59c301	-0.013291121
179	0xbca0ee2e	-0.019644823
180	0x3ca9b0b6	0.020714145
181	0x3c73c196	0.014877697
182	0x3c839c8a	0.016065855
183	0x3ba75518	0.0051065795
184	0x3c945c8d	0.018110538
185	0x3cb8df07	0.022567285
186	0xbb490c0a	-0.0030677342
187	0xbcb55ad5	-0.022138039
188	0xbca54be3	-0.020177787
189	0xbb4cfaa1	-0.0031277316
190	0x3c5037f1	0.01270865
191	0x3b88b327	0.0041717472
192	0x3bdc9605	0.006731751
193	0x3c35f77a	0.011106366
194	0xbb9156a3	-0.0044353767
195	0xbafbfe84	-0.0019225632
196	0x3c35d0d9	0.011097156
197	0x3c276751	0.010217504
198	0x3b7dbfae	0.0038718986
199	0x3becb842	0.0072241137
200	0x39005735	0.00012239518
201	0x3c6a4008	0.014297493
202	0x3c009c52	0.00784977
203	0xb9f7358f	-0.00047151415
204	0xb934bdc4	-0.00017236831
205	0x3c9012d5	0.017587105
206	0xbc719120	-0.014744073
207	0xbcc306af	-0.023806898
208	0xbb6c0781	-0.0036015215
209	0x3b8e6da2	0.0043465653
210	0xbc97ef38	-0.018546686
211	0x37d790c2	2.5697405e-05
212	0x3a439c9a	0.0007461995
213	0x3c989d1f	0.018629609
214	0x3c019f29	0.007911482
215	0x3c9088d5	0.017643372
216	0x3b2ff28c	0.002684745
217	0xbc03e09a	-0.008049155
218	0x39033844	0.00012514094
219	0xbae49a18	-0.0017440943
220	0x3c9197e3	0.01777262
221	0xbafe955c	-0.0019423175
222	0x3c3e5cfc	0.011618849
223	0xb9ee3c2e	-0.00045439735
224	0x3c482534	0.012215901
225	0xbba487b3	-0.0050210594
226	0xbb8a518e	-0.004221148
227	0xbbb0a148	-0.00539032
228	0x3c5f8452	0.013642387
229	0xbcc1102e	-0.023567285
230	0x3b01b625	0.0019792404
231	0x3a6dbec1	0.0009069257
232	0x3bd448f8	0.006478425
233	0xbcb172cc	-0.021661185
234	0xbc888f1f	-0.016669808
235	0x3a60bc88	0.0008573015
236	0x3c557015	0.013027211
237	0x3cb6f582	0.022333864
238	0x3cb3a41d	0.021928841
239	0xbc8d0aa5	-0.01721699
240	0x3c0d49fc	0.008623596
241	0xbc37e433	-0.0112238405
242	0x3bba4452	0.005684414
243	0x3b5908c9	0.0033116809
244	0xbc558e73	-0.013034451
245	0xb948d337	-0.0001915217
246	0x3c2ef1da	0.010677779
247	0x3c4c70cb	0.012478064
248	0xbc51a6a7	-0.012796081
249	0x3c947f10	0.018126994
250	0x3c515daf	0.012778684
251	0x3c3a5f94	0.011375327
252	0xbc6c1280	-0.014408708
253	0xbc77cc02	-0.015124323
254	0xbbc9369e	-0.006140544
255	0xbb9ae61b	-0.0047271377

bias f4 [32]
0	0x3becf461	0.0072312807
1	0xbbd68436	-0.0065465225
2	0x3a0ce702	0.0005374999
3	0xbbc5817c	-0.0060273986
4	0x3b96c700	0.0046013594
5	0xbb4d54fe	-0.0031331177
6	0x3cd5b139	0.026085483
7	0x3cdd42c9	0.027009385
8	0x3c3fb019	0.0116997
9	0x3cc347ad	0.023837889
10	0xbc99a468	-0.018755153
11	0xbad42e18	-0.0016188053
12	0x3cacea5a	0.021107841
13	0x3c8047ab	0.015659174
14	0x3ca757d8	0.02042763
15	0x3ce06865	0.02739353
16	0x3c394082	0.011306884
17	0xbbb7f87b	-0.005614338
18	0x3c80f584	0.015742071
19	0x3c95d779	0.018291222
20	0x3c5c3d43	0.01344234
21	0x3bcbd8bf	0.0062209065
22	0xbcc5fdb9	-0.024168836
23	0x3ca46fee	0.020072903
24	0x3c9a56fe	0.01884031
25	0x383684ef	4.3515985e-05
26	0x3caf1506	0.02137233
27	0xbc9e25b9	-0.019305097
28	0xbb8dab2b	-0.0043233833
29	0x3b9c1c88	0.0047641434
30	0xbc3b742a	-0.01144127
31	0x3cc2d5f3	0.02378366

weight f4 [1, 32, 7, 7]
0	0x3c18d3e9	0.009327867
1	0x3c4f16d9	0.012639725
2	0x3ae710a6	0.0017628863
3	0x3cce749d	0.02520209
4	0x3a953469	0.0011383417
5	0x3c0c5553	0.008565265
6	0xbb9436af	-0.0045231204
7	0x3cc96d27	0.02458818
8	0xbc06aae7	-0.008219457
9	0xbc33a4ad	-0.010964555
10	0xbb2f2dfc	-0.002673029
11	0xbc70ed61	-0.014705033
12	0x3be09685	0.006853881
13	0x3bdb9721	0.0067013656
14	0xbae6706b	-0.0017581111
15	0xba4a1df8	-0.0007710154
16	0xbb2067db	-0.0024475965
17	0xbc7da6de	-0.015481679
18	0xbc563000	-0.0130729675
19	0xbc1ffc1a	-0.009764696
20	0xbc1e4223	-0.009659323
21	0xbc0425d6	-0.008065661
22	0x3c94a573	0.018145299
23	0x3c78bebd	0.015182194
24	0xbb28d55e	-0.0025761942
25	0x3cb799fb	0.02241229
26	0x3c298bde	0.010348288
27	0x3bbc38d5	0.0057440796
28	0x3bcdd482	0.0062814364
29	0x3cd91102	0.026497368
30	0x3cafcf24	0.021461077
31	0xbc3b9aa4	-0.011450443
32	0xbb65d11c	-0.0035067266
33	0x3c7a3f26	0.015273845
34	0xbbc965dc	-0.006146176
35	0xbbfb14a3	-0.007662372
36	0xba8fa095	-0.0010957891
37	0xbb1773be	-0.002310976
38	0xbbda614e	-0.0066644317
39	0xbc09c0a8	-0.008407749
40	0xbab83d8f	-0.0014056432
41	0xbc6dd372	-0.0145157445
42	0x3c8bd8c7	0.01707114
43	0xbc65b75c	-0.014020767
44	0xbc323e7f	-0.010879158
45	0xbb8c1f5e	-0.0042762
46	0x3ca16d32	0.019705389
47	0xbc73b4eb	-0.014874677
48	0x3c0891ff	0.008335589
49	0x3ca4a294	0.020097055
50	0x3ca915f0	0.020640343
51	0x3cb631d5	0.022240559
52	0x3b9ce7ed	0.00478839
53	0x3cb690e1	0.02228588
54	0x3ce55b54	0.02799765
55	0x3a8a0984	0.00105314
56	0x3ceb7cdc	0.028746061
57	0x3ceae035	0.028671363
58	0xbc7dd36a	-0.0154923
59	0x3ad11184	0.0015950655
60	0xbc95db17	-0.018292947
61	0xbc8f50b8	-0.017494544
62	0xbc227293	-0.009915012
63	0x3c422186	0.011848813
64	0x3c61056e	0.013734205
65	0xbc0cabb2	-0.008585857
66	0x3bceb5be	0.0063082865
67	0xbcaa8902	-0.020817284
68	0x3c3eee81	0.011653543
69	0xbc9caa02	-0.019124035
70	0x3cb6ec17	0.022329373
71	0xbc9cdc8f	-0.01914814
72	0x3cb406f1	0.021975966
73	0xbc0dd6d3	-0.008657175
74	0x3bb72311	0.005588897
75	0xbbaa2fa1	-0.005193666
76	0x3c23d36b	0.009999136
77	0x3b08180b	0.0020766284
78	0x3c1351cc	0.00899167
79	0xbc9abc3f	-0.01888859
80	0x3ca3a9fa	0.019978512
81	0xbc2bd8b9	-0.010488682
82	0x3c237117	0.009975693
83	0x39dba426	0.00041893235
84	0x3c225910	0.0099089295
85	0x3c49dfce	0.012321426
86	0xbbbb9cd6	-0.0057254834
87	0x3aeab00c	0.0017905249
88	0xbc42474e	-0.011857821
89	0xbc2cbed0	-0.01054354
90	0xbc0dbeee	-0.008651478
91	0xbc3a6586	-0.011376744
92	0xbc8bb192	-0.017052446
93	0x3c81a7ca	0.015827078
94	0x3b8e0f1f	0.0043352987
95	0xb9d5dd52	-0.00040791422
96	0xbcb63416	-0.022241633
97	0x3c17accd	0.0092575075
98	0xbc6d6159	-0.0144885415
99	0xbc8c570b	-0.01713135
100	0xbc8e3580	-0.017359495
101	0xbc813d47	-0.01577629
102	0x3b93634f	0.0044979225
103	0x3ca002e3	0.019532626
104	0x3cbe58c6	0.02323569
105	0x3cc64335	0.024201969
106	0x3b6438f8	0.0034823995
107	0x3c48abdf	0.0122480085
108	0xbc15512c	-0.009113591
109	0x3bf84181	0.007576168
110	0x3a7b010e	0.00095750473
111	0xbca4f1ea	-0.020134885
112	0x3cdece1d	0.027197892
113	0x3cd2ac47	0.025716914
114	0x3c3eecd9	0.011653149
115	0x3bd5f94b	0.006529962
116	0x3beede5a	0.00728969
117	0xbc126d87	-0.008937246
118	0x3c02e2ad	0.007988614
119	0x3ceb2128	0.028702334
120	0x3caba3c2	0.02095211
121	0xbc2b7d61	-0.010466904
122	0xbc7c8aa9	-0.0154139185
123	0xbbf2f0bc	-0.0074139517
124	0x3cb1e40f	0.021715192
125	0x3bb4a258	0.005512517
126	0x3cc7e112	0.024399314
127	0xbcba8978	-0.022770628
128	0x3c19fc6c	0.009398561
129	0xbc40fbe4	-0.011778805
130	0xbcaae8ca	-0.020862956
131	0x3b7bf3b4	0.003844482
132	0xbc994775	-0.018710831
133	0x3cc3a5e2	0.02388281
134	0xbc550e73	-0.013003933
135	0xbcb40fdc	-0.021980219
136	0x3ae12f79	0.0017180286
137	0xbc947c3f	-0.018125651
138	0xbcc6fb02	-0.024289612
139	0xbc790e30	-0.0152011365
140	0x3c6c80f1	0.014435039
141	0x3c3ce9b7	0.011530331
142	0x3c593f6a	0.013259748
143	0xbc964dd4	-0.018347658
144	0xbc1ae2f9	-0.009453529
145	0x3c69f74a	0.01428015
146	0xbc2ad846	-0.01042754
147	0xbc7e753f	-0.015530883
148	0x3c10fa15	0.008848687
149	0xbca0b180	-0.019615889
150	0xbbdead53	-0.006795564
151	0xbca13965	-0.019680688
152	0xbbab1333	-0.0052207946
153	0x3b771c40	0.0037706047
154	0x3b66d7a0	0.0035223737
155	0xbc62a430	-0.013833091
156	0xbc3a2d15	-0.011363287
157	0x3c2c4e08	0.010516651
158	0xbaea1d8e	-0.0017861591
159	0x3ca69145	0.020332942
160	0x3cb5122f	0.022103397
161	0x3cad3d96	0.02114753
162	0xbcbe620f	-0.023240117
163	0xbcb1f4b1	-0.021723123
164	0x3c9b74e9	0.018976646
165	0xbb3b739a	-0.002860284
166	0x3ac3b954	0.0014932551
167	0x3ccc0363	0.024903959
168	0x3ba060a3	0.0048943325
169	0x3c858501	0.016298773
170	0xba2f12cf	-0.0006678523
171	0x3cd0e542	0.025499944
172	0x3c858f95	0.016303817
173	0xbc5bea10	-0.013422504
174	0x3bd19f3b	0.0063971556
175	0x3cd94a13	0.02652458
176	0x3b8c56c3	0.0042828037
177	0x3b3a6587	0.0028441863
178	0x3c9d95c8	0.01923646
179	0xbc3276d9	-0.010892593
180	0xbcb906e8	-0.022586301
181	0x3cc51239	0.02405654
182	0x3cdaaca2	0.026693646
183	0x3c95e439	0.018297302
184	0x3cbadc6a	0.02281018
185	0xbb61ade7	-0.003443593
186	0xbc019fe3	-0.007911655
187	0x3b971d97	0.0046116817
188	0x3c60de56	0.013724884
189	0x3ca42255	0.020035902
190	0x3b204cbc	0.00244598
191	0x3ca8574b	0.020549437
192	0xbc22c50e	-0.009934677
193	0x3bb52387	0.005527917
194	0x3b0d703d	0.0021581792
195	0x3ca863d8	0.020555422
196	0xbc2dcdfc	-0.0106081925
197	0x3c6d11d5	0.0144695835
198	0x3c6622f9	0.014046424
199	0xba498e86	-0.0007688779
200	0x3c235849	0.009969779
201	0xbc071678	-0.008245103
202	0xbc82c51e	-0.015963133
203	0x3c81ef01	0.015861036
204	0xbba5197a	-0.0050384374
205	0xbcab0e87	-0.02088095
206	0x3cb4487b	0.022007218
207	0x3c56fc25	0.013121639
208	0xbb6ffe93	-0.0036620244
209	0x3cccfe59	0.025023626
210	0xbc91ac05	-0.01778222
211	0x3b4afaf5	0.0030972336
212	0x3cb5fa51	0.022214087
213	0xbc7f339a	-0.015576268
214	0x3c285479	0.010274046
215	0x3ce11b12	0.027478728
216	0x3b49ae74	0.0030774148
217	0xbcc256b1	-0.023722978
218	0x3bd27784	0.006422939
219	0xbb29f290	-0.0025931932
220	0x3c846a68	0.01616402
221	0x3bed6d13	0.0072456687
222	0xbc7923a9	-0.015206256
223	0xbc30101e	-0.01074603
224	0x3b94c8da	0.004540545
225	0x3cd10e2a	0.02551945
226	0xbc0f5ead	-0.0087506
227	0xbbe2688d	-0.006909436
228	0x3b9987b8	0.0046853684
229	0x3c6dae34	0.014506865
230	0xbb46eaaf	-0.0030352285
231	0xbca98de1	-0.020697536
232	0xbb337a5f	-0.0027386171
233	0x3c79ac1c	0.015238788
234	0xbae535f2	-0.001748739
235	0xbc6b4c9a	-0.014361525
236	0x3bb8457e	0.0056235185
237	0x3ca0dbf1	0.019636126
238	0xba8ded04	-0.0010828082
239	0x3c23583f	0.00996977
240	0x3b98d5f6	0.004664178
241	0x3c4f3476	0.012646785
242	0x3c6736c6	0.01411218
243	0xbc015c88	-0.007895596
244	0x3c45212b	0.012031834
245	0xbcb71afb	-0.022351732
246	0xbc4c8ff7	-0.012485496
247	0xbc6a2667	-0.014291382
248	0xbae6f51e	-0.0017620658
249	0x3c88be7b	0.01669239
250	0xbcb66247	-0.02226366
251	0x3c802d66	0.015646648
252	0xbccab94f	-0.024746565
253	0xbc6ea750	-0.014566258
254	0xbcc771f4	-0.02434633
255	0x3c8628a9	0.01637681
